falsification/model.pth (torch, 21309 bytes, 6 tensors)

fc1.weight f4 [64, 5]
0	0x3e85b698	0.2611587
1	0x3c4f0c10	0.012637153
2	0xbe9fc539	-0.31205156
3	0xbe9201f8	-0.28517127
4	0x3e6958cf	0.22787784
5	0x3dbbd88f	0.09172165
6	0xbdb45895	-0.08805958
7	0x3b45b458	0.0030167308
8	0x3cdd14de	0.02698749
9	0xbda7b5fb	-0.08189007
10	0x3ce65d7e	0.028120752
11	0x3eda9cb0	0.42697668
12	0x3d9e39de	0.07725881
13	0xbe7f723b	-0.24945919
14	0xbef8357f	-0.48478314
15	0x3e8000c5	0.25000587
16	0x3e865393	0.26235637
17	0xbe624159	-0.2209524
18	0xbe10d140	-0.14142323
19	0x3efd6d6f	0.49497554
20	0x3db52b77	0.08846181
21	0xbbf43fd9	-0.0074539003
22	0x3e928a7f	0.2862129
23	0xbe6fcf72	-0.23418978
24	0x3e653753	0.22384386
25	0xbe3308a5	-0.17483766
26	0xbe340b91	-0.17582537
27	0x3dcc7018	0.09982318
28	0xbe23814b	-0.1596729
29	0x3e807ad0	0.25093699
30	0x3ea896e2	0.32927614
31	0x3e777159	0.24164332
32	0x3e62a62b	0.221337
33	0x3eb2cd38	0.34922194
34	0x3e831f7b	0.25609955
35	0x3dd3fe3c	0.10351226
36	0xbd3bb35b	-0.045825344
37	0xbb4e59bc	-0.0031486591
38	0x3dc6242c	0.09674868
39	0xbefbf034	-0.49206698
40	0x3d12d8a7	0.035851147
41	0xbece6a27	-0.40315363
42	0xbf313603	-0.6922304
43	0xbfa47fac	-1.2851462
44	0x3e86dc6e	0.2634005
45	0xbe62b4e5	-0.22139318
46	0x3e7148b0	0.23562884
47	0x3e423c2b	0.18968265
48	0x3e556820	0.20840502
49	0x3f03c87e	0.514778
50	0x3e842b26	0.2581417
51	0xbc87fcae	-0.01659998
52	0xbebfa653	-0.37431583
53	0x3cca5d4c	0.02470269
54	0xbe95a227	-0.29225275
55	0x3eb6494d	0.356028
56	0xbe84f64b	-0.25969157
57	0xbdaf1784	-0.08549407
58	0x3d8a74da	0.06760569
59	0x3ea0247f	0.31277844
60	0x3ebb1510	0.36539507
61	0xbed2ba73	-0.41157874
62	0xbe8c6cab	-0.27426657
63	0x3e11101c	0.14166301
64	0x3f0f8c4f	0.5607347
65	0x3e09c966	0.13455734
66	0x3e311098	0.17291486
67	0x3deb465e	0.11488031
68	0xbecb1a2f	-0.39668414
69	0xbed89b9f	-0.4230623
70	0x3c1064c8	0.008813091
71	0x3e483fce	0.1955559
72	0x3d1405a6	0.0361382
73	0xbe895232	-0.26820523
74	0xbe0804dd	-0.13283105
75	0xbedc9d0a	-0.4308856
76	0x3eb1c931	0.3472381
77	0x3e4ddf55	0.20104726
78	0xbd8328f2	-0.06404294
79	0x3d101add	0.03518187
80	0xbd192be9	-0.03739539
81	0xbe9b57d5	-0.30340448
82	0xbd3a5423	-0.045490395
83	0xbe8a0364	-0.26955712
84	0xbd813730	-0.06309354
85	0x3e1cd46d	0.15315409
86	0x3e5c6f71	0.21526887
87	0x3e8c61cd	0.27418366
88	0xbf1a5b5a	-0.6029564
89	0x3e0342e8	0.12818491
90	0x3d3c50d8	0.045975536
91	0x3ec0415b	0.37549862
92	0xbdf2c5d5	-0.1185414
93	0xbf08360c	-0.5320747
94	0xbe7f0b60	-0.24906683
95	0x3db07f95	0.08618084
96	0x3ead946e	0.33902305
97	0xbeb5b6a4	-0.35490906
98	0xbe06efa8	-0.13177359
99	0xbebfe4d3	-0.37479267
100	0xbdcb5d96	-0.099299595
101	0xbdfe2fdf	-0.124114744
102	0xbdd240ec	-0.10266289
103	0xbdee1a11	-0.116260655
104	0x3dd183e4	0.10230234
105	0xbeb2fdf0	-0.34959364
106	0x3eb7b585	0.35880676
107	0xbec0984c	-0.37616193
108	0x3ec3b3db	0.38223156
109	0xbe8de418	-0.27713084
110	0xbe8576c1	-0.26067165
111	0xbe962b40	-0.29329872
112	0xbe6d3477	-0.23164545
113	0xbbe05fab	-0.006847342
114	0x3ec6cee4	0.3882972
115	0x3c1ddaa1	0.009634645
116	0x3d99505b	0.0748603
117	0xbf0ac60e	-0.5420846
118	0x3ea8b327	0.32949182
119	0x3c15c7e2	0.009141894
120	0xbdc5a6a3	-0.09650924
121	0xbdb7d29d	-0.08975718
122	0x3ccfbab7	0.025357587
123	0x3ee903f1	0.4551082
124	0x3dd7b66f	0.10532843
125	0x3e0939d2	0.13400963
126	0x3e8dcdfd	0.2769622
127	0xbf0285c2	-0.5098535
128	0xbe00b25c	-0.12568039
129	0x3ed603d5	0.417998
130	0x3e91de8b	0.284901
131	0xbe9cd680	-0.306324
132	0x3d9577ca	0.072982386
133	0x3e9f0ba9	0.31063583
134	0xbf2d55be	-0.6770896
135	0xbd1b543a	-0.03792212
136	0x3e113a76	0.14182457
137	0xbe1e0417	-0.15431248
138	0x3eea65b6	0.45780724
139	0xbf4128a1	-0.7545262
140	0x3e2cb9bf	0.16867732
141	0xbe9d6583	-0.3074151
142	0x3ea9c07e	0.33154672
143	0xbd8bf8af	-0.06834542
144	0x3e557aef	0.20847677
145	0x3ddb351c	0.10703489
146	0x3e98504a	0.29748756
147	0xbe00af2e	-0.12566826
148	0xbe6254a4	-0.221026
149	0xbf1255ee	-0.5716237
150	0xbd91fe97	-0.07128637
151	0x3dac5cf9	0.084161706
152	0xbea1b77e	-0.31585306
153	0x3d16f6b0	0.036856353
154	0xbe46811b	-0.19385187
155	0xbc480068	-0.012207128
156	0x3df3eaac	0.119099945
157	0xbed52235	-0.4162766
158	0x3e39fad3	0.18162088
159	0xbe0155e1	-0.12630416
160	0xbe2fc2b4	-0.17164117
161	0x3eddf8ee	0.4335398
162	0xbe90647a	-0.28201658
163	0x3e5dbe77	0.21654688
164	0xbe760a2e	-0.2402732
165	0xbea8fe73	-0.3300663
166	0x3e20de35	0.15709765
167	0xbec1020a	-0.37696868
168	0xbdd307bd	-0.1030421
169	0x3e10617e	0.1409969
170	0x3e23dc56	0.1600202
171	0x3c970f9f	0.018440066
172	0xbefea8fc	-0.497383
173	0xbd14ec3c	-0.036358103
174	0x3e9ff1ab	0.31239066
175	0x3eb168f9	0.346504
176	0xbeb3a5ab	-0.35087332
177	0xbe576304	-0.21033865
178	0x3ecb235a	0.3967541
179	0xbf05572f	-0.52086157
180	0xbea24bcc	-0.31698453
181	0xbe5bbab9	-0.21457948
182	0x3e323576	0.17403206
183	0xbe556dee	-0.20842716
184	0x3db41958	0.087938964
185	0x3e8e7098	0.27820277
186	0x3e2adcba	0.16685763
187	0xbe217548	-0.15767395
188	0xbf10f923	-0.5663015
189	0xbea71f99	-0.32641295
190	0xbeca2e29	-0.39488342
191	0x3dc27600	0.09495163
192	0xbe17d8a5	-0.14828737
193	0x3e0f9c7e	0.14024541
194	0xbda2e570	-0.07953918
195	0xbee3d917	-0.44501564
196	0x3b3f456a	0.002918566
197	0x3ede7709	0.43450192
198	0x3e265599	0.1624359
199	0xbebfb25e	-0.3744077
200	0xbe8a9a77	-0.27070972
201	0xbe375ab0	-0.17905688
202	0xbe3bca5b	-0.18338911
203	0xbddf2978	-0.108965814
204	0x3eb269bc	0.34846294
205	0x3dbdbbae	0.09264313
206	0xbe0b00c9	-0.13574518
207	0x3e6c1336	0.23054203
208	0x3e4b529c	0.19855732
209	0x3d05c2ec	0.032656595
210	0x3b4887db	0.0030598554
211	0x3d6ba8fe	0.05753421
212	0x3e4d394f	0.20041393
213	0xbe8c06ec	-0.2734903
214	0xbc9210b8	-0.017830238
215	0xbebe95f0	-0.37223768
216	0x3ed158ce	0.40888065
217	0x3ea8417f	0.3286247
218	0x3c9bd6aa	0.019023258
219	0xbf07c9d5	-0.53042346
220	0x3e9779af	0.29585025
221	0xbe0700cb	-0.13183896
222	0x3e1d3cf8	0.15355289
223	0xbe0494ce	-0.1294739
224	0xbf43605b	-0.763189
225	0xbe4152a2	-0.18879178
226	0xbe261876	-0.16220269
227	0xbf94e190	-1.1631336
228	0xbf9a42c1	-1.2051622
229	0x3f2e228a	0.6802145
230	0x3e58238d	0.21107312
231	0xbecc5cf5	-0.3991467
232	0xbd954467	-0.07288437
233	0xbc73748d	-0.014859331
234	0x3eae027e	0.33986276
235	0x3d93e977	0.07222264
236	0x3ea886a7	0.32915232
237	0xbf0b1470	-0.5432806
238	0x3e9448a5	0.28961673
239	0xbf1e3879	-0.6180492
240	0x3ddc47a4	0.10755852
241	0x3e5e50ec	0.21710557
242	0xbcd975e6	-0.026545476
243	0xbf0a33b4	-0.5398514
244	0x3d88d73c	0.06681678
245	0x3e22e627	0.15908109
246	0xbe5bb0c1	-0.21454145
247	0x3ecd19f0	0.4005885
248	0xbf3fc0b2	-0.74903405
249	0xbd98b228	-0.074558556
250	0x3d168e57	0.03675684
251	0x3db22fc7	0.08700519
252	0xbef72a5f	-0.48274514
253	0x3ea91547	0.33024046
254	0xbe317d70	-0.17333007
255	0x3dbbd02b	0.09170564

fc1.bias f4 [64]
0	0x39e773e8	0.0004414611
1	0x3dd856be	0.1056342
2	0x3de80f94	0.11331096
3	0x3eb09900	0.3449173
4	0x3eb3056b	0.3496507
5	0x3dcf1cb9	0.101129
6	0x3f0d3e17	0.55172867
7	0x3ac709ef	0.0015185456
8	0x3e482f79	0.1954936
9	0x3e0bf30f	0.13666938
10	0xbc6c0553	-0.014405566
11	0x3e6a6e6c	0.22893685
12	0x3f212de9	0.6296068
13	0x3e4d0cc0	0.20024395
14	0xbd03c89f	-0.03217375
15	0x3dc2ce63	0.095120214
16	0x3e836d31	0.25669244
17	0x3eeb8e4b	0.46006998
18	0x3e277d8c	0.16356486
19	0xbf040c3a	-0.51581156
20	0x3ce7b5da	0.028284956
21	0xbd670a7c	-0.056406483
22	0x3eb4d195	0.35316148
23	0x3c68a46e	0.014199359
24	0x3d8eb122	0.06967379
25	0xbd364ceb	-0.04450695
26	0xbf12c071	-0.5732489
27	0xbf11db93	-0.5697567
28	0x3dcc0a1a	0.09962864
29	0xbd0d4c4f	-0.0344966
30	0xbcae05be	-0.021242972
31	0xbef4aafd	-0.47786704
32	0xbf0e346f	-0.5554876
33	0x3eaac090	0.3335004
34	0x3eec87d1	0.4619737
35	0xbe5f59de	-0.21811625
36	0xbe543680	-0.20723915
37	0x3e8c229c	0.27370155
38	0xbd52576c	-0.051352903
39	0x3eb4ca63	0.3531066
40	0x3dc3dcdc	0.0956361
41	0xbedca9d0	-0.43098307
42	0x3f00eeea	0.50364554
43	0xbf24739b	-0.642389
44	0xbf1f74fc	-0.6228788
45	0x3e92c6b4	0.28667223
46	0x3e3f70ae	0.18695328
47	0x3dbbc1be	0.09167813
48	0xbebfd5c4	-0.37467778
49	0xbea6cdd6	-0.32578915
50	0xb90ca166	-0.00013411566
51	0x3ddfd055	0.10928408
52	0xbebbf7b9	-0.36712435
53	0x3d4f8427	0.05066314
54	0x3e521097	0.20514141
55	0xbed1e488	-0.40994668
56	0xbcc20054	-0.023681797
57	0xbe2666e6	-0.1625019
58	0x3eb09dac	0.34495294
59	0x3c30cfae	0.010791702
60	0x3ebf5376	0.37368363
61	0x3f07b077	0.5300364
62	0xbdb5c576	-0.08875553
63	0xbe95caaa	-0.29256183

fc2.weight f4 [64, 64]
0	0x3c399680	0.011327386
1	0x3db42448	0.087959826
2	0xbdc5596c	-0.096361965
3	0xbd723188	-0.059129268
4	0xbcf438d0	-0.029812247
5	0x3dfc40ea	0.12317069
6	0xbda444cc	-0.080209345
7	0x3ce39660	0.027781665
8	0xbd40be98	-0.047056764
9	0xbd7117bc	-0.058860525
10	0x3d8c31ca	0.06845434
11	0xbcab56a0	-0.02091533
12	0xbdaa2410	-0.083076596
13	0x3dd619fe	0.10454176
14	0x3cb76058	0.022384807
15	0x3dcdce74	0.100491434
16	0x3dbcebd2	0.09224667
17	0xbcca9300	-0.024728298
18	0xbdaf19a2	-0.08549811
19	0x3d1e7b04	0.038691536
20	0x3d206848	0.03916195
21	0x3dc89c36	0.0979542
22	0x3dcafa88	0.09911066
23	0xbdf09328	-0.11746818
24	0xbd8be102	-0.06830026
25	0xbdbc0e5a	-0.09182425
26	0x3db69ab8	0.08916229
27	0xbcb98028	-0.022644117
28	0xbdd73798	-0.105086505
29	0xbdfdecf0	-0.12398708
30	0xbdd40638	-0.10352749
31	0xbddae55a	-0.106882766
32	0x3dfb251e	0.12262939
33	0xbdb6cce2	-0.08925797
34	0x3db105a0	0.08643651
35	0x3c9fd530	0.019510835
36	0xbdd63f6c	-0.104613155
37	0xbdbce1f0	-0.09222782
38	0xbdf1fce6	-0.11815815
39	0xbd846c0a	-0.06465919
40	0x3d4d51c8	0.05012682
41	0xbde38488	-0.11109263
42	0x3dbe4692	0.09290804
43	0x3d4236f0	0.047415674
44	0x3d6b64ac	0.057469055
45	0x3b087180	0.0020819604
46	0x3d9b2342	0.07575084
47	0xbdfb8d96	-0.12282865
48	0x3d70d8fc	0.058800682
49	0x3caa0b88	0.020757452
50	0xbd336a9c	-0.043802842
51	0x3ddb704c	0.10714778
52	0x3d8d7e62	0.06908871
53	0x3c9e2620	0.019305289
54	0x3dcbab3e	0.09944771
55	0xbde2119a	-0.110385135
56	0xbdd14cc0	-0.10219717
57	0x3c35f240	0.01110512
58	0x3de25564	0.11051443
59	0x3de0ac5c	0.10970375
60	0xbdd6c1fa	-0.10486217
61	0xbde7cede	-0.11318754
62	0xbd5dbf64	-0.054137602
63	0x3c3ecab0	0.011645004
64	0x3d9d8374	0.07691088
65	0xbcade36c	-0.021226607
66	0xbe392c8c	-0.180834
67	0x3d0bcac6	0.034128927
68	0xbcdac56d	-0.026705468
69	0x3aaa9a80	0.0013016015
70	0x3de9ecf1	0.11422146
71	0x3c6e90b7	0.01456087
72	0xbe5fd2ee	-0.21857807
73	0x3ce3586f	0.02775213
74	0xbd9476f3	-0.0724925
75	0x3d0bb2c4	0.03410603
76	0x3e8ae46d	0.271274
77	0xbdf753d5	-0.120765366
78	0xbcf968b5	-0.030445436
79	0xc04091b3	-3.0088928
80	0x3d535c20	0.05160153
81	0x3dc0f560	0.094218016
82	0x3b860a42	0.0040905783
83	0xbddd95c0	-0.10819578
84	0xbd103140	-0.03520322
85	0xbda2ac75	-0.0794305
86	0x3d12c490	0.035831988
87	0x3bdc8a2d	0.006730339
88	0xbd759d34	-0.059964374
89	0x3e334e23	0.17510276
90	0xbec7d1aa	-0.39027148
91	0xbed6d80d	-0.4196171
92	0x3dba5097	0.090974025
93	0xbe265ce2	-0.1624637
94	0x3d892eea	0.06698401
95	0xbd6debe1	-0.05808628
96	0x3cd34064	0.02578754
97	0x3d511c9c	0.051052675
98	0x3d7cbbae	0.061702423
99	0xbb0bdfc3	-0.002134309
100	0xbd7f27d4	-0.062293842
101	0xbe02a81b	-0.1275944
102	0x3dac74be	0.08420704
103	0x3d0ef510	0.03490168
104	0xbdd7ac74	-0.1053094
105	0xbd16ef9b	-0.0368496
106	0x3d9d5e9a	0.076840594
107	0xbdce7657	-0.10081165
108	0xbd8eb022	-0.069671884
109	0xbba2cc39	-0.004968193
110	0xbc0959c8	-0.008383222
111	0xbd9858db	-0.07438823
112	0x3c4dc755	0.0125597315
113	0xbdbaa55f	-0.09113573
114	0xbb633494	-0.003466879
115	0x3da6d69e	0.08146404
116	0xbe2b7974	-0.1674555
117	0xbfadab78	-1.3567953
118	0xbdb77c85	-0.08959297
119	0x3da2a49e	0.079415545
120	0x3da2e458	0.07953709
121	0xbe33ee72	-0.17571428
122	0x3f1a0895	0.60169345
123	0x3e86db0d	0.26338997
124	0xbfbd1af9	-1.4773856
125	0xbfd634c6	-1.6734855
126	0xbd13f773	-0.036124658
127	0xbfb29585	-1.395188
128	0xbd01fd4e	-0.03173571
129	0x3d57881d	0.052620042
130	0x3d708700	0.058722496
131	0x3ccf905c	0.02533739
132	0xbd80a877	-0.06282132
133	0xbde84040	-0.1134038
134	0xbca67398	-0.020318791
135	0xbd778fc3	-0.060439836
136	0x3c189068	0.009311773
137	0xbe2b2f9d	-0.16717382
138	0x3d94a4da	0.072580054
139	0xbd8b1f11	-0.06793035
140	0xbdded0f7	-0.10879701
141	0xbda90be6	-0.082542226
142	0x3c433857	0.011915288
143	0x3f19c314	0.6006329
144	0x3d5ea0b0	0.054352462
145	0x3dabac02	0.08382417
146	0x3ea412ee	0.32045692
147	0x3e410db6	0.18852887
148	0x3d6d2c28	0.05790344
149	0x3dd53f28	0.10412437
150	0x3c7abde0	0.015304059
151	0xbdc61a33	-0.09672966
152	0xbd326578	-0.0435538
153	0xbd26952e	-0.040669613
154	0x3cd0598e	0.025433328
155	0xbd741e0b	-0.059598964
156	0xbde26026	-0.11053495
157	0x3e0570f1	0.13031365
158	0xbd4b8de4	-0.049695864
159	0x3c5c5a95	0.013449331
160	0x3dd5f918	0.104479015
161	0x3d1596e4	0.036520854
162	0x3d949f76	0.07256977
163	0xbde74e22	-0.112941995
164	0x3de3a1e0	0.111148596
165	0x3ecb952f	0.39762256
166	0x3d76d8f8	0.06026551
167	0xbda43e06	-0.080196425
168	0x3d849ce2	0.064752355
169	0xbd134260	-0.035951972
170	0x3e3039ad	0.17209502
171	0x3c700ded	0.014651758
172	0x3dc0bbe9	0.09410841
173	0x3ec6158b	0.3868831
174	0xbd900e14	-0.07033935
175	0x3dc42cbb	0.09578844
176	0xbb89f429	-0.0042100144
177	0x3dd7d061	0.10537792
178	0x3c1dcf34	0.009631921
179	0xbe2137c6	-0.15743932
180	0x3e86c5bd	0.26322737
181	0x3f24ad5a	0.64327013
182	0xbe58da32	-0.21176985
183	0x3de43afe	0.11144064
184	0x3da0fcd7	0.078607254
185	0xbc95b1e8	-0.018273309
186	0x3d85df36	0.06536715
187	0xbdcfc7af	-0.101455085
188	0x3eeffd00	0.4687271
189	0x3e5d275f	0.2159705
190	0xbc27b836	-0.01023679
191	0xbe106615	-0.14101441
192	0xbd305658	-0.043051094
193	0x3b560680	0.0032657683
194	0xbd8d3938	-0.06895679
195	0xbcff0958	-0.031132385
196	0xbd5a8f08	-0.05335906
197	0xbb90ede0	-0.004422888
198	0xbdfbfc94	-0.12304035
199	0xbc879d88	-0.016554609
200	0x3dfa9f14	0.12237373
201	0x3c9e3420	0.019311965
202	0x3d3d5bc4	0.046230093
203	0xbdbe455c	-0.09290573
204	0x3d94575a	0.072432235
205	0xbd873d7c	-0.06603524
206	0x3ca36880	0.01994729
207	0x3d9908ce	0.074723825
208	0xbd16cc54	-0.036815956
209	0x3c88e798	0.016711995
210	0xbd40e088	-0.04708913
211	0xbc74d5c0	-0.01494354
212	0xbd0ed7d8	-0.034873813
213	0x3dafed1a	0.085901454
214	0x3bd13a20	0.006385103
215	0xbdcfd624	-0.10148266
216	0x3d55f8e0	0.0522393
217	0x3d870420	0.06592584
218	0xb9ec9c00	-0.00045129657
219	0x3deba5e8	0.115062535
220	0xbdb5bdf0	-0.08874118
221	0x3d4e71ec	0.050401613
222	0xbda26c52	-0.07930817
223	0x3d61f658	0.055166572
224	0x3ce802d0	0.028321654
225	0x3d47da4c	0.04879217
226	0xbdf28e04	-0.118434936
227	0x3ddbe2da	0.10736628
228	0xbccd4ec0	-0.025061965
229	0xbdb22e46	-0.08700232
230	0x3d0d4040	0.0344851
231	0xbd8a521c	-0.06753942
232	0xbca96d40	-0.020681977
233	0xbc4938e0	-0.012281626
234	0x3dd7f36e	0.105444774
235	0x3d5a984c	0.053367898
236	0xbdc0d52c	-0.09415659
237	0x3d8684aa	0.065682724
238	0xbc685360	-0.014180034
239	0x3da423a0	0.080146074
240	0xbdefe96e	-0.11714445
241	0xbb135b80	-0.0022484958
242	0x3b7c24c0	0.0038474053
243	0x3d5b426c	0.05353014
244	0xbd78bd28	-0.06072727
245	0x3d2212ac	0.03956859
246	0x3d3cf278	0.046129674
247	0x3db72d3a	0.08944173
248	0xbc672090	-0.014106885
249	0xbda83f9a	-0.08215256
250	0x3cbd4348	0.023103371
251	0xbd82fd90	-0.063960195
252	0x3dbebaf0	0.09312999
253	0xbcb8e398	-0.022569463
254	0xbdef8726	-0.116956994
255	0x3d4cb0e0	0.04997337

fc2.bias f4 [64]
0	0x3d6e31d4	0.05815299
1	0x3f0293aa	0.5100657
2	0xbe403371	-0.18769623
3	0x3decea90	0.11568177
4	0x3dbe00cb	0.09277495
5	0xbde6f9c1	-0.112781055
6	0x3e6bec71	0.23039414
7	0x3e9ed4b8	0.31021667
8	0xbe809761	-0.25115493
9	0xbe31b851	-0.17355467
10	0xbde6ed70	-0.11275756
11	0xbdfd3017	-0.12362688
12	0x3b8551e0	0.004068598
13	0x3db3a3e4	0.08771494
14	0x3e6dcf4c	0.23223609
15	0x3cd3c828	0.025852278
16	0x3e406eda	0.18792287
17	0xbcd9290a	-0.026508827
18	0x3e70b372	0.23505953
19	0xbd4bbb42	-0.04973913
20	0x3e64347e	0.22285649
21	0x3db254f8	0.08707613
22	0xbe5fd018	-0.21856725
23	0x3df289a7	0.11842661
24	0xbda6a683	-0.08137228
25	0xbd294929	-0.041329537
26	0x3e299de8	0.16564143
27	0x3d7499ae	0.059716873
28	0xbe36c596	-0.1784881
29	0x3e0f096b	0.13968436
30	0x3db64ad6	0.089009926
31	0x3eb6644a	0.3562339
32	0xba99916a	-0.001171631
33	0xbe87afa0	-0.2650118
34	0xbdce6d1a	-0.10079403
35	0x3d06336c	0.032763883
36	0x3d0bf068	0.034164816
37	0x3d242cd0	0.0400818
38	0xbdedb980	-0.11607647
39	0x3d68470b	0.056708377
40	0xbd1ee905	-0.038796443
41	0xbdd67f72	-0.10473527
42	0xbcd1bde3	-0.02560324
43	0x3e181fe8	0.14855921
44	0x3ed11eea	0.40843898
45	0x3ea763ad	0.32693234
46	0xbdbd9b3f	-0.092581265
47	0x3e495536	0.19661412
48	0xbe369603	-0.17830662
49	0x3dbcbb5e	0.09215425
50	0x3dca25d7	0.098704986
51	0xbe35f217	-0.17768131
52	0x3e093bc8	0.13401711
53	0xbe15423d	-0.14576049
54	0xbea087b7	-0.31353542
55	0xbde99c6e	-0.1140679
56	0xbdaea860	-0.08528209
57	0xbd9f3e00	-0.077754974
58	0x3bac52a0	0.005258873
59	0x3d85f2bc	0.065404385
60	0xbd84f364	-0.064917356
61	0xbc55f6a0	-0.013059288
62	0x3cea8840	0.028629422
63	0xbe4faec7	-0.20281516

fc3.weight f4 [2, 64]
0	0x3d827156	0.06369273
1	0x3f05eac8	0.5231137
2	0xbe0bf550	-0.13667798
3	0xbdc1a374	-0.09455004
4	0x3d55bb92	0.052180834
5	0x3b4d577c	0.0031332662
6	0x3be5f31f	0.0070175077
7	0x3e35ac48	0.17741501
8	0xbd5f5f36	-0.05453416
9	0xbdce8b38	-0.100851476
10	0xbca5f3e0	-0.02025789
11	0x3d3e69b4	0.046487525
12	0x3dfef886	0.12449746
13	0x3e93a761	0.28838637
14	0x3d8b8243	0.06811955
15	0xbc481570	-0.012212142
16	0x3e832549	0.25614384
17	0xbdb9e39c	-0.09076616
18	0x3d16aad5	0.036784012
19	0xbca4bbec	-0.02010914
20	0x3c9da849	0.019245284
21	0xbccc4270	-0.024934024
22	0xbdc7efe2	-0.09762551
23	0xbe304f82	-0.1721783
24	0xbdc04988	-0.09389025
25	0xbe04cbf0	-0.12968421
26	0x3f46eeb0	0.7770796
27	0x3c8b33b2	0.016992424
28	0xbe00fab2	-0.12595633
29	0x3d49637e	0.04916715
30	0xb9a905ec	-0.00032238604
31	0x3c2e77e0	0.010648698
32	0x3d02ea00	0.03196144
33	0xbd936f71	-0.0719899
34	0xbd9a0860	-0.07521129
35	0xbdc8ab39	-0.09798283
36	0xbd0c0f54	-0.034194306
37	0x3dc46410	0.09589398
38	0x3db5cb8e	0.088767156
39	0xbd37affc	-0.044845566
40	0xbc5bb152	-0.013408976
41	0x3df45aca	0.11931379
42	0x3e15ce9e	0.146296
43	0xbe9db2aa	-0.30800372
44	0x3ebdc9b3	0.37067947
45	0x3d80afe4	0.062835485
46	0xbda4d73a	-0.08048864
47	0x3edc71dc	0.43055618
48	0xbdbe31c0	-0.09286833
49	0x3ded4e10	0.11587155
50	0x3e30b8d6	0.1725801
51	0x3c254b1b	0.010088707
52	0x3de72912	0.112871304
53	0x3c6b2c41	0.014353813
54	0xbdb7a836	-0.089676306
55	0x3c8a6e28	0.01689823
56	0x3dabdfca	0.08392294
57	0x3caffd22	0.021483008
58	0xbd24ef44	-0.040267244
59	0xbdbc452b	-0.0919288
60	0xbdeb2646	-0.114819095
61	0x3ce96c78	0.028494105
62	0x3f53203f	0.8247108
63	0xbd5ac90e	-0.053414397
64	0xbc9f4058	-0.019439861
65	0xbccf3e9f	-0.025298415
66	0x3da46d57	0.080286674
67	0x3dcc88b2	0.0998701
68	0x3c03c572	0.00804268
69	0xbc23534b	-0.009968589
70	0xbcb42d2a	-0.021994192
71	0xbf39a00a	-0.72509825
72	0xbcd9acb6	-0.026571613
73	0xbdb10899	-0.08644218
74	0xbd03b51c	-0.03215514
75	0xbd6bc59f	-0.057561513
76	0xbcb9ca40	-0.022679448
77	0xc0481c95	-3.1267445
78	0xbe5effbb	-0.21777241
79	0xbd3ef78c	-0.046622798
80	0x3e796eb8	0.24358642
81	0xbce9e840	-0.028553128
82	0xbd04a131	-0.032380287
83	0x3bcadb4e	0.006190694
84	0xbd9854d1	-0.074380524
85	0xbddf008c	-0.10888776
86	0xbd00be1f	-0.031431314
87	0xbd104db5	-0.035230357
88	0x3c0d12b0	0.0086104125
89	0x3cfd5b2d	0.030927265
90	0xbe2fdb64	-0.17173535
91	0x3d863899	0.06553764
92	0x3d947918	0.07249659
93	0xbda07445	-0.07834677
94	0xbc091c31	-0.008368538
95	0xbdea84dc	-0.11451122
96	0xbc7c0686	-0.015382415
97	0xbcd2ac10	-0.025716811
98	0xbd8899da	-0.0666997
99	0x3d983bdd	0.07433293
100	0x3db20a6c	0.08693394
101	0xbc51985d	-0.012792674
102	0xbd03fe3c	-0.03222488
103	0x3db8f25f	0.090306036
104	0xbc6b3e15	-0.014358063
105	0xbcdea2a8	-0.02717717
106	0xbb6d6e3c	-0.0036229035
107	0x3d01ab31	0.0316574
108	0xbeba310f	-0.36365554
109	0xbfbc052d	-1.468908
110	0xbca31133	-0.019905662
111	0xbf16148c	-0.586251
112	0x3c9dadbc	0.019247882
113	0xbd3edf9c	-0.04659997
114	0xbbd4aa10	-0.0064899996
115	0x3e8688a9	0.26276138
116	0xbdceaf40	-0.1009202
117	0x3c683829	0.014173546
118	0x3d223ef0	0.039610803
119	0x3e099c4c	0.13438529
120	0xbcc924d8	-0.024553701
121	0xbabf083e	-0.00145746
122	0x3d489014	0.04896553
123	0x3d6ad231	0.05732936
124	0xbdc9a6cb	-0.09846266
125	0xbdfb7fe2	-0.12280251
126	0xbecbe692	-0.3982435
127	0xbcfc8e07	-0.030829443

fc3.bias f4 [2]
0	0x3e29c516	0.16579089
1	0xbe7dc659	-0.24782695
